…
ta Information:
2025-05-13 16:21:52,366 (xlit_task:133)  INFO: Batch size: 16
2025-05-13 16:21:52,366 (xlit_task:134)  INFO: [Training] Data size: 44098 to 2757 batches
2025-05-13 16:21:52,367 (xlit_task:137)  INFO: [Validation] Data size: 14699 to 919 batches
2025-05-13 16:21:52,368 (xlit_task:140)  INFO: Token information
2025-05-13 16:21:52,369 (xlit_task:141)  INFO: [ben] Tokenizer loaded with 64 tokens.
2025-05-13 16:21:52,369 (xlit_task:144)  INFO: [mni] Tokenizer loaded with 47 tokens.
2025-05-13 16:21:52,371 (xlit_task:150)  INFO: Model information:
TransformerSeq2Seq(
  (encoder_embed): Embedding(64, 256)
  (decoder_embed): Embedding(47, 256)
  (pos_encoder): PositionalEncoding()
  (pos_decoder): PositionalEncoding()
  (transformer): Transformer(
    (encoder): TransformerEncoder(
      (layers): ModuleList(
        (0-3): 4 x TransformerEncoderLayer(
          (self_attn): MultiheadAttention(
            (out_proj): NonDynamicallyQuantizableLinear(in_features=256, out_features=256, bias=True)
          )
          (linear1): Linear(in_features=256, out_features=512, bias=True)
          (dropout): Dropout(p=0.1, inplace=False)
          (linear2): Linear(in_features=512, out_features=256, bias=True)
          (norm1): LayerNorm((256,), eps=1e-05, elementwise_affine=True)
          (norm2): LayerNorm((256,), eps=1e-05, elementwise_affine=True)
          (dropout1): Dropout(p=0.1, inplace=False)
          (dropout2): Dropout(p=0.1, inplace=False)
        )
      )
      (norm): LayerNorm((256,), eps=1e-05, elementwise_affine=True)
    )
    (decoder): TransformerDecoder(
      (layers): ModuleList(
        (0-3): 4 x TransformerDecoderLayer(
          (self_attn): MultiheadAttention(
            (out_proj): NonDynamicallyQuantizableLinear(in_features=256, out_features=256, bias=True)
          )
          (multihead_attn): MultiheadAttention(
            (out_proj): NonDynamicallyQuantizableLinear(in_features=256, out_features=256, bias=True)
          )
          (linear1): Linear(in_features=256, out_features=512, bias=True)
          (dropout): Dropout(p=0.1, inplace=False)
          (linear2): Linear(in_features=512, out_features=256, bias=True)
          (norm1): LayerNorm((256,), eps=1e-05, elementwise_affine=True)
          (norm2): LayerNorm((256,), eps=1e-05, elementwise_affine=True)
          (norm3): LayerNorm((256,), eps=1e-05, elementwise_affine=True)
          (dropout1): Dropout(p=0.1, inplace=False)
          (dropout2): Dropout(p=0.1, inplace=False)
          (dropout3): Dropout(p=0.1, inplace=False)
        )
      )
      (norm): LayerNorm((256,), eps=1e-05, elementwise_affine=True)
    )
  )
  (generator): Linear(in_features=256, out_features=47, bias=True)
  (dropout): Dropout(p=0.1, inplace=False)
)
2025-05-13 16:21:52,372 (xlit_task:151)  INFO: Total trainable parameters: 5313071
2025-05-13 16:21:52,373 (xlit_task:152)  INFO: Experiment directory: exp/xlit_train_transformer_char_ben_mni
2025-05-13 16:21:52,373 (xlit_task:153)  INFO: Optimizer: Adam
2025-05-13 16:21:52,374 (xlit_task:154)  INFO: Loss criterion: CrossEntropyLoss
…
